model/conv10_weight.npy (npy, 32896 bytes, 1 tensors)

array f4 [128, 64, 1, 1]
-0.08527511 -0.16554764 0.07833585 0.14684723 -0.072521165 -0.24922927 -0.03776983 -0.20418559
0.11476613 0.0922972 0.018737186 -0.05800139 0.002142846 0.15649055 -0.15644969 0.17473498
-0.122032955 0.22120135 -0.060385853 0.27211422 -0.042202935 0.17864919 -0.10217219 -0.11872399
-0.11013045 0.08332944 -0.047979705 -0.041533064 -0.24497916 -0.10251416 -0.081581555 -0.020157335
0.14094864 0.06496397 -0.06192421 -0.19037439 0.018069474 -0.10750274 -0.012634893 0.25518456
0.052441992 0.17829569 0.13613217 0.052896965 -0.18684089 0.13254729 -0.22713132 -0.0040428257
-0.05472842 0.1354822 0.27410907 -0.04398759 0.08828173 -0.10075426 -0.0046558776 0.13594763
0.14605883 0.07632685 0.023597902 0.002081628 0.049465753 0.15239765 -0.056749247 0.07821745
-0.10279978 0.04752149 0.056197226 -0.106793515 0.04856364 0.024656055 0.00057210686 0.07317683
0.17068397 0.03480396 -0.0019487883 -0.09975715 0.0821853 0.0069236923 0.1387797 0.11892816
0.0019780644 0.08897659 0.16539575 0.05035603 -0.01838698 0.08691052 -0.047013637 0.0061633606
-0.08522166 0.07106318 -0.004123969 -0.05456012 0.04649303 -0.02708816 0.06486078 -0.0025188208
-0.066888146 0.041340023 -0.016524075 0.015312386 0.09062858 -0.11302518 -0.170396 0.020148583
-0.07763303 -0.04221384 0.070810266 -0.109857425 0.04302649 0.0120804375 0.02280606 -0.10898886
0.12524983 0.008039269 -0.040246848 -0.018499311 0.14736852 0.04162521 -0.11066342 -0.0061453483
0.035479642 0.05346997 0.052133422 0.025760606 0.00825993 -0.10507924 0.0039941217 0.06254075
0.043167345 -0.05327926 -0.020274675 -0.0860538 -0.09619816 0.0039460436 -0.07164278 -0.04772827
-0.041290026 0.04266996 0.023609145 -0.016504776 0.08251762 -0.041964967 -0.05009456 0.0812925
0.009737401 -0.016418297 -0.10472791 0.054929245 0.052447863 0.00055970077 -0.03333174 -0.050108355
0.024216758 0.031176468 0.04524682 0.11273956 -0.021183522 0.07709956 -0.024125041 0.065787025
-0.060557637 0.05160689 0.032484747 -0.010498475 0.10377965 -0.108554766 0.04765444 0.021204205
0.06613826 0.05517719 -0.016560202 0.018315893 -0.051218603 0.065900296 0.0068443133 0.06152725
0.06932311 -0.106854014 -0.097506665 0.08433993 0.042522464 0.04399189 0.10871164 0.08512156
-0.0022390264 0.023070756 0.07027921 -0.048532363 0.046386972 0.09452837 -0.036401812 -0.074838504
0.38080496 0.10327501 0.015079088 0.03727308 -0.12530807 0.09532718 -0.10693236 0.23836137
-0.09698739 0.027444424 -0.08200721 0.11158533 -0.16658928 -0.13530633 0.2520616 -0.15634194
0.059087496 -0.12379318 0.092571475 -0.18123062 -0.08287062 -0.10621159 -0.015841039 0.16083038
-0.004243702 0.06671801 -0.04228349 -0.011831587 0.09540986 0.21177 0.21675034 0.081560016
0.18062736 -0.07394091 0.15193808 -0.1083318 0.2013193 -0.06966276 -0.17324936 -0.010579042
-0.07494862 -0.059057288 0.02645062 -0.33927387 -0.0602671 -0.20253058 -0.13414417 0.025938416
-0.116285905 0.26667744 -0.13994099 -0.14303638 -0.16361855 -0.10212801 0.21431531 -0.094548084
-0.042607885 -0.055590983 -0.08515089 -0.14063993 -0.026746213 -0.13649252 -0.027318472 -0.024075842
00000000: b8a4 aebd 5285 29be 8c6e a03d 1f5f 163e
00000010: fa85 94bd f535 7fbe 8ab4 1abd 0716 51be
00000020: 810a eb3d 5006 bd3d ba7e 993c de92 6dbd
00000030: fd6e 0c3b 0f3f 203e 5934 20be baed 323e
00000040: 6aec f9bd 9b82 623e 2857 77bd 8e52 8b3e
00000050: fcdc 2cbd d0ef 363e a73f d1bd 9025 f3bd
00000060: 138c e1bd a0a8 aa3d 5e86 44bd 931e 2abd
00000070: d1db 7abe f2f2 d1bd 3b14 a7bd ff20 a5bc
00000080: d754 103e d40b 853d 3ea4 7dbd 81f1 42be
00000090: 6f06 943c 662a dcbd 9502 4fbc 8da7 823e
000000a0: 6acd 563d 2593 363e 3b66 0b3e 7daa 583d
000000b0: 3853 3fbe 7aba 073e 1d95 68be ae79 84bb
000000c0: e82a 60bd d9bb 0a3e 0658 8c3e 552c 34bd
000000d0: 0dcd b43d 4058 cebd 5590 98bb db35 0b3e
000000e0: 7290 153e 4051 9c3d 6350 c13c ec6b 083b
000000f0: 9a9c 4a3d 210e 1c3e e671 68bd 7830 a03d
00000100: b188 d2bd e5a5 423d 102f 663d 8fb6 dabd
00000110: abea 463d 7ffb c93c 71f9 153a bcdd 953d
00000120: c7c7 2e3e 998e 0e3d 7c6e ffba 7a4d ccbd
00000130: c450 a83d 24e0 e23b 441c 0e3e 9b90 f33d
00000140: 6aa2 013b 5c39 b63d 815d 293e 2042 4e3d
00000150: 4ba0 96bc 25fe b13d 5f91 40bd 04f6 c93b
00000160: b288 aebd 9389 913d 5c22 87bb 6f7a 5fbd
00000170: 7a6f 3e3d fde7 ddbc bbd5 843d cd12 25bb
00000180: a7fc 88bd 2854 293d 7f5d 87bc cde0 7a3c
00000190: 7a9b b93d bf79 e7bd 4a7c 2ebe a40e a53c
000001a0: 11fe 9ebd 6be8 2cbd f904 913d eefc e0bd
000001b0: 8b3c 303d 07ed 453c c6d3 ba3c 8d35 dfbd
000001c0: 7e41 003e 23b7 033c e1d9 24bd de8b 97bc
000001d0: c6e7 163e 327f 2a3d 81a3 e2bd eb5e c9bb
000001e0: 1a53 113d 5403 5b3d db89 553d e807 d33c
000001f0: a854 073c c933 d7bd 1fe1 823b 5d15 803d
00000200: 3ed0 303d 5a3b 5abd 1317 a6bc fa3c b0bd
00000210: 8a03 c5bd d04d 813b 73b9 92bd b87e 43bd
00000220: bb1f 29bd b2c6 2e3d f767 c13c 0635 87bc
00000230: fffe a83d 75e3 2bbd f42f 4dbd af7c a63d
00000240: 9f89 1f3c aa7f 86bc 967b d6bd 7dfd 603d
00000250: 92d3 563d e2b8 123a dd86 08bd 6b3e 4dbd
00000260: 3962 c63c cb65 ff3c bb54 393d 00e4 e63d
00000270: 1189 adbc 60e6 9d3d e1a1 c5bc 59bb 863d
00000280: 490b 78bd bf61 533d ba0e 053d cc01 2cbc
00000290: 6d8a d43d f651 debd 4d31 433d 71b4 ad3c
000002a0: 7f73 873d 7a01 623d 43a9 87bc 360b 963c
000002b0: 99ca 51bd bcf6 863d 4346 e03b ff03 7c3d
000002c0: 46f9 8d3d 47d6 dabd 93b1 c7bd 6aba ac3d
000002d0: 092c 2e3d d730 343d 35a4 de3d 3654 ae3d
000002e0: a1bc 12bb e2fe bc3c 8cee 8f3d dfc9 46bd
000002f0: 4400 3e3d 1798 c13d 111a 15bd ee44 99bd
00000300: def8 c23e d981 d33d 470e 773c a8ab 183d
00000310: c250 00be e63a c33d 5aff dabd 0115 743e
00000320: 53a1 c6bd 21d3 e03c 65f3 a7bd d986 e43d
00000330: 6196 2abe be8d 0abe 380e 813e 1a18 20be
00000340: bb05 723d 4787 fdbd 1d96 bd3d 8594 39be
00000350: 12b8 a9bd 7685 d9bd 11c5 81bc b8b0 243e
00000360: c10e 8bbb 74a3 883d 7431 2dbd 46d9 41bc
00000370: 3f66 c33d 3cda 583e cdf3 5d3e f008 a73d
00000380: 61f6 383e 556e 97bd a895 1b3e 10dd ddbd
00000390: a626 4e3e 59ab 8ebd 4868 31be b853 2dbc
000003a0: a97e 99bd 0ee6 71bd f8ae d83c 4eb5 adbe
000003b0: a2da 76bd 2d64 4fbe 175d 09be cd7c d43c
000003c0: 4e27 eebd f289 883e b14c 0fbe 2178 12be
000003d0: 9f8b 27be 7d28 d1bd 7975 5b3e 6da2 c1bd
000003e0: 9b85 2ebd 5fb3 63bd 9763 aebd ea03 10be
000003f0: e01a dbbc b2c4 0bbe fdca dfbc b33a c5bc
