model/conv3_weight.npy (npy, 16512 bytes, 1 tensors)

array f4 [64, 64, 1, 1]
0.042604364 -0.30851445 0.037343338 -0.049756043 0.0068138596 -0.076698445 0.36729956 0.26928267
-0.0104799615 -0.009800899 0.299888 -0.116739005 0.039350767 0.10374413 0.024935443 0.026419997
0.14560081 0.21425608 0.22721986 -0.07137057 0.07441206 0.03750256 -0.010324877 -0.21775132
-0.19021125 -0.44828823 -0.039241556 0.22577102 0.22603068 0.22769484 -0.034537956 0.08059776
-0.06021434 0.31870547 0.0024173618 -0.053698085 0.20372368 -0.41500276 -0.2298271 -0.01740807
0.19637147 -0.22997154 -0.00599688 -0.04569609 0.036433563 -0.16569783 0.015037647 0.08176456
0.092674285 -0.017972423 -0.21839333 0.17710482 -0.11326808 -0.12198918 0.12527649 -0.13478133
-0.16517591 -0.0405364 0.09881715 -0.075252205 -0.09818218 0.16931985 -0.06566726 -0.11510357
-0.010177309 -0.05175093 -0.04738388 -0.23246017 0.10317975 -0.12709035 0.1917932 -0.057582963
0.24823074 0.18398178 -0.034797944 0.05461327 0.030100362 -0.14958362 0.031383052 0.111293025
-0.06692288 -0.022918452 -0.11157922 -0.10188299 0.066374466 0.085398145 -0.050973445 0.1451808
-0.13733014 -0.009056837 -0.14067912 -0.11294545 -0.1225493 -0.1093954 -0.55631065 -0.323571
-0.06380904 -0.1273333 -0.031428836 -0.016720241 0.038599234 -0.0070779347 -0.20791078 0.30038896
0.07087347 -0.08003882 -0.08544537 -0.084041744 0.03157166 -0.032985307 -0.200821 0.046234384
0.025823727 -0.042487867 -0.061873883 -0.45241922 -0.104084626 0.022833599 -0.31332222 0.0560104
-0.20731872 0.05204418 0.059736587 -0.23448578 0.19215253 -0.06455166 -0.15877289 0.053154875
-0.028716877 -0.015202304 -0.06816171 -0.05155304 0.054023784 0.079457596 -0.15453881 0.10437495
-0.036917623 0.1933715 0.012388639 0.12105286 0.044663597 -0.07474506 0.02784303 0.28647545
-0.066326216 -0.15004435 -0.11014098 -0.036528073 0.16953033 0.06339353 -0.068238854 0.12466528
0.0534156 -0.09279112 0.092870824 -0.05861133 0.006192055 -0.009262662 0.009428408 0.020930847
-0.041817524 -0.12629011 -0.08081369 -0.027049972 -0.049040154 -0.0642175 -0.011024386 0.08373577
0.0651759 0.0076650283 0.013158565 -0.04864051 0.039495587 0.107951604 -0.048484337 -0.16367309
-0.019407684 0.040009823 0.008042267 0.12515055 0.10018246 -0.04557996 -0.43207425 0.0368322
0.014014453 0.09643867 0.0008024837 -0.07509408 0.0037604098 -0.11865319 0.065652914 -0.02382899
0.09888025 0.091970906 0.04391645 -0.0018990906 -0.08044335 -0.03126263 0.09847519 -0.041040156
-0.0081845345 -0.0058159963 -0.04968159 -0.09006414 -0.047690965 0.016257398 -0.034888722 -0.054475177
-0.036306836 0.021525456 0.036602654 -0.07334602 -0.059057884 0.048546545 -0.06732501 -0.05808209
0.03885841 0.007486587 0.021400094 0.08574373 -0.059657123 -0.078194804 0.047206804 0.059506763
-0.046440322 -0.018353445 -0.058747206 0.09324922 -0.05639812 0.024177808 0.07341914 -0.025228577
-0.06907441 0.026744122 -0.05886857 -0.013742843 0.009369204 0.0704177 0.013541168 -0.09410107
-0.053786155 0.06024648 -0.09204715 -0.0838552 0.08533304 0.03536511 -0.026447961 -0.07477208
0.03634106 0.08084639 0.08876544 -0.09204337 -0.032846916 -0.015682092 -0.05949035 -0.005176557
00000000: ea81 2e3d 9bf5 9dbe 54f5 183d fecc 4bbd
00000010: cc46 df3b 1314 9dbd b00e bc3e 6bdf 893e
00000020: 25b4 2bbc f393 20bc ec8a 993e dc14 efbd
00000030: 452e 213d cd77 d43d 6a45 cc3c c06e d83c
00000040: 6118 153e f265 5b3e 53ac 683e bc2a 92bd
00000050: 5a65 983d 499c 193d ac29 29bc 34fa 5ebe
00000060: bdc6 42be 0986 e5be c1bb 20bd 8530 673e
00000070: 9674 673e d628 693e ac77 0dbd 7010 a53d
00000080: 50a3 76bd 5d2d a33e 9a6c 1e3b 86f2 5bbd
00000090: f19c 503e 3e7b d4be cc57 6bbe 5e9b 8ebc
000000a0: 9a15 493e a97d 6bbe 7a81 c4bb d32b 3bbd
000000b0: 5c3b 153d b1ac 29be 7760 763c 2d74 a73d
000000c0: 04cc bd3d e73a 93bc 80a2 5fbe f75a 353e
000000d0: 18f9 e7bd 77d5 f9bd 7b48 003e 1e04 0abe
000000e0: e023 29be 7f09 26bd a560 ca3d d41d 9abd
000000f0: bd13 c9bd 2f62 2d3e 8e7c 86bd 6cbb ebbd
00000100: babe 26bc c8f8 53bd 9915 42bd 0a0a 6ebe
00000110: e84f d33d f923 02be 7065 443e 1ddc 6bbd
00000120: 3330 7e3e b865 3c3e 4a88 0ebd 2ab2 5f3d
00000130: 0995 f63c 732c 19be 848b 003d 99ed e33d
00000140: dd0e 89bd 7abf bbbc a583 e4bd 07a8 d0bd
00000150: 56ef 873d 39e5 ae3d 88c9 50bd 47aa 143e
00000160: 46a0 0cbe 2163 14bc 300e 10be f24f e7bd
00000170: 21fb fabd b20a e0bd 606a 0ebf 19ab a5be
00000180: 50ae 82bd a963 02be 86bb 00bd e3f8 88bc
00000190: 3b1a 1e3d 05ee e7bb 90e6 54be 95cc 993e
000001a0: 1c26 913d 65eb a3bd fbfd aebd 141e acbd
000001b0: 4951 013d 9a1b 07bd 05a4 4dbe 4460 3d3d
000001c0: 488c d33c c207 2ebd 786f 7dbd 7ea3 e7be
000001d0: 522a d5bd 870d bb3c c56b a0be 296b 653d
000001e0: 5c4b 54be 472c 553d 5aae 743d 0a1d 70be
000001f0: a2c3 443e a933 84bd 5c95 22be edb8 593d
00000200: a83f ebbc 1613 79bc 5e98 8bbd 4829 53bd
00000210: 0b48 5d3d aaba a23d 6c3f 1ebe 89c2 d53d
00000220: ef36 17bd 2e03 463e b8f9 4a3c 90ea f73d
00000230: 2df1 363d f013 99bd 1117 e43c e9ac 923e
00000240: 0ad6 87bd 3aa5 19be 9891 e1bd 769e 15bd
00000250: 5c99 2d3e 78d4 813d d0c0 8bbd 8350 ff3d
00000260: 51ca 5a3d 4509 bebd 0f33 be3d 6f12 70bd
00000270: b9e6 ca3b 6cc2 17bc 9c79 1a3c 2b77 ab3c
00000280: da48 2bbd 3252 01be a681 a5bd e797 ddbc
00000290: 54de 48bd 7784 83bd a09f 34bc a97d ab3d
000002a0: f17a 853d eb2a fb3b 0697 573c 453b 47bd
000002b0: 20c6 213d bb15 dd3d 8397 46bd eb99 27be
000002c0: ddfc 9ebc 57e1 233d b6c3 033c 7727 003e
000002d0: 762c cd3d 0db2 3abd d638 ddbe 5cdd 163d
000002e0: e09c 653c a381 c53d c55d 523a edca 99bd
000002f0: 3571 763b 7200 f3bd 0975 863d 0435 c3bc
00000300: ba81 ca3d 3e5b bc3d bce1 333d e8ea f8ba
00000310: 7cbf a4bd 3e0d 00bd 5cad c93d b919 28bd
00000320: 6d18 06bc 1d94 bebb ec7e 4bbd 8c73 b8bd
00000330: 9a57 43bd 3c2e 853c 7ae7 0ebd 5d21 5fbd
00000340: 7ab6 14bd 2756 b03c aaec 153d 7036 96bd
00000350: aee6 71bd bed8 463d b2e1 89bd 7ce7 6dbd
00000360: ff29 1f3d 0b52 f53b 404f af3c 699a af3d
00000370: 075b 74bd 9924 a0bd ec5b 413d 5dbd 733d
00000380: 3538 3ebd f759 96bc e9a0 70bd 72f9 be3d
00000390: b701 67bd 8a10 c63c c65c 963d 29ac cebc
000003a0: e276 8dbd 7d16 db3c 2b20 71bd a929 61bc
000003b0: 4a81 193c 2837 903d c6db 5d3c 10b8 c0bd
000003c0: df4e 5cbd 03c5 763d 3783 bcbd 46bc abbd
000003d0: 17c3 ae3d 01db 103d 65a9 d8bc 1b22 99bd
000003e0: 5dda 143d cb92 a53d a8ca b53d 3c81 bcbd
000003f0: 7d8a 06bd bb77 80bc 27ac 73bd 1ca0 a9bb
