model/conv32_weight.npy (npy, 524416 bytes, 1 tensors)

array f4 [512, 256, 1, 1]
0	0xbbe53604	-0.0069949646
1	0x3cc21b11	0.023694547
2	0xbc53dada	-0.012930596
3	0x3c18529d	0.00929704
4	0xbc61f2b3	-0.013790774
5	0x3c9e2bbe	0.019307967
6	0xbd3478f9	-0.04406068
7	0x3ccf5694	0.025309838
8	0x3d409400	0.047016144
9	0x3d3709ce	0.044687085
10	0x3ba74ded	0.005105725
11	0xbc9f84b5	-0.01947246
12	0xbd908584	-0.07056716
13	0xbd3499bd	-0.04409193
14	0x3b723895	0.0036959995
15	0xbd265faf	-0.040618595
16	0x3dcfcd07	0.10146528
17	0xbcc0b289	-0.023522632
18	0x3d18baec	0.037287638
19	0xbd083159	-0.033250187
20	0x3d291797	0.041282263
21	0x3cd3b148	0.02584137
22	0x3d443141	0.047898535
23	0x3d9eea80	0.07759571
24	0x3ce1e8dc	0.027576856
25	0x3d6ac3ba	0.057315566
26	0x3d3cf2e0	0.04613006
27	0xbb882e7a	-0.004155931
28	0x3b7e0246	0.003875868
29	0xbc4936bf	-0.012281119
30	0xbd2721a2	-0.04080356
31	0xbce9fa3d	-0.028561706
32	0x3badb508	0.0053011216
33	0xbd3892aa	-0.045061745
34	0x3b8b4e79	0.004251298
35	0x3bfd46ec	0.007729402
36	0xbd74ac33	-0.059734534
37	0xbb4c8267	-0.0031205656
38	0x3d6ca554	0.057774857
39	0x3c51c7cb	0.012803982
40	0x3cc7f1fa	0.024407376
41	0xbc1c535c	-0.009541359
42	0xbca3bfb5	-0.019988874
43	0xbd3481da	-0.04406915
44	0x3d3c0f1b	0.045912843
45	0xbc55c789	-0.013048061
46	0x3d6b1100	0.05738926
47	0x3b9a965c	0.0047176313
48	0x3ce9adc7	0.028525246
49	0x3d61e7ad	0.055152584
50	0xbcc5cb25	-0.024144718
51	0x3c451f8c	0.012031447
52	0xbcee3285	-0.029076824
53	0xbda42874	-0.08015528
54	0xbce82741	-0.02833903
55	0xbd9e89c4	-0.077411205
56	0xbaadf6bd	-0.0013272386
57	0x3d2848c7	0.04108503
58	0xbbf8192e	-0.007571361
59	0xbccecf01	-0.025245192
60	0xbd4d1562	-0.05006922
61	0x3d808fdb	0.06277438
62	0xbc030e3e	-0.007999001
63	0x3d1d6425	0.038425583
64	0xbce96cfd	-0.028494352
65	0xbc772a9c	-0.015085842
66	0xbc3b37da	-0.01142689
67	0x3b1b14a3	0.0023663423
68	0xbd06d766	-0.032920264
69	0xbd969276	-0.07352154
70	0xbb0d40bf	-0.0021553484
71	0x3cb36b85	0.021901855
72	0x3d4f646e	0.050632887
73	0xbc1d0a65	-0.009584998
74	0xbd894f22	-0.067045465
75	0x3d4db26c	0.050218984
76	0x3c102d2c	0.008799832
77	0xb89cb9a0	-7.473235e-05
78	0xbd2936f8	-0.041312188
79	0x3c813264	0.015771098
80	0xbcb00db1	-0.021490904
81	0xbd32380c	-0.04351048
82	0xbcd9f70c	-0.026607059
83	0xbc308fa7	-0.010776437
84	0x3d29e40b	0.041477244
85	0x3d66c56d	0.056340624
86	0x3cc36802	0.023853306
87	0x3cb8bba3	0.02255041
88	0xbae4b667	-0.001744938
89	0xbd46ca3c	-0.04853271
90	0xbdc0cd66	-0.09414177
91	0x3cb5be64	0.022185512
92	0xbd1681f8	-0.03674504
93	0xbd7c12b8	-0.06154129
94	0xbcdcd968	-0.026959136
95	0x3cdafef2	0.026732896
96	0xbd27aec6	-0.04093816
97	0xbd7245e5	-0.059148688
98	0x3c19c06e	0.009384258
99	0x3d45bd9e	0.048276536
100	0x3d191481	0.03737307
101	0x3cf4a2d1	0.029862793
102	0xbcf85572	-0.030314181
103	0x3c33588d	0.010946405
104	0xb9be3297	-0.00036277316
105	0xbdb0679b	-0.08613511
106	0x3d6d52fc	0.05794047
107	0x3cbbfc68	0.022947505
108	0xbca50924	-0.02014596
109	0xba5c5c14	-0.00084060547
110	0xbc8c8c0c	-0.017156623
111	0xbc9bee6b	-0.019034585
112	0xbd1eac9c	-0.038738832
113	0x3c1c0a6b	0.009523968
114	0xbc56b875	-0.013105501
115	0xbca94568	-0.020662978
116	0x3cbdf069	0.023185926
117	0x3c958747	0.018252982
118	0x3b992ffd	0.00467491
119	0x3d0e4eea	0.034743227
120	0x3c1ff025	0.009761845
121	0xbca3b95d	-0.019985849
122	0x3cecf926	0.028927397
123	0x3d268c13	0.04066093
124	0xbd09105c	-0.033462867
125	0xbd73a551	-0.05948383
126	0xba126f69	-0.00055860594
127	0xbd2c3223	-0.04204
128	0xbb23fd15	-0.0025022675
129	0xb882c47c	-6.235481e-05
130	0x3d14336d	0.036181856
131	0xbcd25cec	-0.025679074
132	0xbc3af860	-0.011411756
133	0x3cc5ac30	0.024129957
134	0xbd132c51	-0.035930935
135	0xbc629a70	-0.013830766
136	0xbcf60172	-0.030029986
137	0x3c0a7721	0.008451254
138	0xbcef8644	-0.029238828
139	0x3cca3f3b	0.024688354
140	0x3d0309b4	0.031991675
141	0xbd4b029d	-0.04956304
142	0x3c0d581b	0.008626963
143	0x3bd74773	0.0065697967
144	0x3b81a0e0	0.0039559454
145	0x3ce1a39c	0.027543835
146	0xbac9fe3c	-0.0015410851
147	0xbd0b32cb	-0.033983987
148	0xbcfe3e4d	-0.031035567
149	0xbd1131fe	-0.035448067
150	0xbd32688b	-0.04355673
151	0xbd473040	-0.04863
152	0x3d6444b9	0.0557296
153	0xbc837fb6	-0.016052108
154	0x3ce259af	0.027630655
155	0x3cae8d6a	0.021307666
156	0x3d984488	0.07434946
157	0x3b81db56	0.0039629145
158	0x3d2430b6	0.040085517
159	0x3c80f771	0.01574299
160	0x3c838a39	0.01605712
161	0x3d09f848	0.033684045
162	0xbce7f2a0	-0.028313935
163	0x3cb20f7f	0.021735905
164	0xb9d52107	-0.00040651133
165	0x3ca530f9	0.020164954
166	0x3963df5d	0.00021731616
167	0x3c6080fb	0.013702626
168	0xbd0b7a44	-0.03405215
169	0x3d5eaa23	0.054361474
170	0x3d01db42	0.03170324
171	0x3d3be94e	0.045876794
172	0xbb14e49d	-0.0022719272
173	0x3cf21626	0.029551577
174	0xbc114418	-0.0088663325
175	0xbd1e02b9	-0.038576815
176	0xba96f45d	-0.0011516918
177	0xbb516921	-0.003195353
178	0xbd25c610	-0.04047209
179	0x3d140b14	0.036143377
180	0xbc9d576f	-0.01920673
181	0xbd2801b5	-0.041017253
182	0x3ceb848a	0.028749723
183	0xbdcca3d8	-0.09992188
184	0x3a2d5838	0.0006612572
185	0xbc83510a	-0.016029853
186	0xbd3d0148	-0.0461438
187	0x3a9fb351	0.0012184178
188	0xbb27e596	-0.0025619022
189	0xb78367f4	-1.5664824e-05
190	0x3dbaad1c	0.09115049
191	0x3d0079a5	0.03136601
192	0xbd4e9d9a	-0.05044327
193	0x3d5a8134	0.053345874
194	0xba8f95bb	-0.0010954657
195	0x3c13b2da	0.0090148095
196	0x3d120b67	0.035655405
197	0x3cd9d3a6	0.02659018
198	0xbd182db5	-0.037152965
199	0xbd4e8f6a	-0.05042974
200	0xbd00611d	-0.031342614
201	0xbd1a2b11	-0.037638728
202	0xbcc2d526	-0.023783278
203	0x3cba1216	0.022713702
204	0x3c3c8f6c	0.011508804
205	0xbd8ee3b7	-0.06977027
206	0xbd839070	-0.06424034
207	0x3d6039bd	0.054742564
208	0xbd8d4d02	-0.06899454
209	0xbc7a9992	-0.015295403
210	0x3d1e0fe9	0.03858939
211	0x3ca14ff8	0.019691452
212	0x3d7e445d	0.062076915
213	0xbdb5cd6d	-0.088770725
214	0xbc162338	-0.00916367
215	0x3d18f8f8	0.03734681
216	0x3d298611	0.04138762
217	0x3d64c820	0.055854917
218	0xbc2f5654	-0.010701735
219	0xbcb7c4b8	-0.02243267
220	0xbc33c5d7	-0.010972462
221	0xbbcbc986	-0.006219092
222	0x3d2e48bf	0.042549845
223	0xbab765c3	-0.0013992119
224	0xbd866ba6	-0.06563501
225	0xbd29edec	-0.041486666
226	0x3c59324a	0.013256619
227	0xbd3347aa	-0.043769516
228	0xbc40b16b	-0.01176105
229	0x3c273112	0.01020457
230	0xbc6f9d66	-0.014624929
231	0x3abb69e9	0.0014298531
232	0x3d4b6916	0.049660765
233	0x3d1e63de	0.03866946
234	0x3d232c5b	0.039837223
235	0x3bf917ab	0.0076016984
236	0x3d14f36a	0.03636495
237	0x3cd04a04	0.025425918
238	0xbd87730e	-0.06613742
239	0x3c262138	0.010139756
240	0xbd5ce315	-0.0539275
241	0x3c9bc800	0.019016266
242	0xbd7f327b	-0.062304
243	0xbccd5ca5	-0.02506859
244	0xbb88b5cb	-0.004172062
245	0xbd6d87f3	-0.05799098
246	0x3d2325c2	0.03983093
247	0xbd2b24f8	-0.041783303
248	0xbca8a911	-0.02058843
249	0xbc029d63	-0.007972094
250	0xbd48e6ea	-0.04904834
251	0xbd83c354	-0.0643374
252	0x3bfb1c47	0.007663283
253	0xbd4d74dd	-0.050160278
254	0x3c87f0b5	0.01659427
255	0x3d1e9f49	0.038726125
