model/conv2_weight.npy (npy, 147584 bytes, 1 tensors)

array f4 [64, 64, 3, 3]
0	0xbd5b68e4	-0.05356683
1	0xbcd6f526	-0.026239943
2	0xbd4e5f46	-0.05038383
3	0xbca852b7	-0.020547254
4	0x3cdb33f3	0.02675817
5	0xbd50eae5	-0.051005263
6	0x3dac77a9	0.08421261
7	0x3d610e16	0.054945074
8	0x3d8fad68	0.070154965
9	0x3d27890b	0.04090218
10	0x3ca7d139	0.020485507
11	0xbcf79975	-0.030224541
12	0xbdc0e60a	-0.094188765
13	0xbe292eb8	-0.16521728
14	0xbe827d38	-0.2548616
15	0x3da51215	0.080600895
16	0xbc96a231	-0.018387886
17	0xbc7afad4	-0.015318591
18	0xbd5a1f19	-0.053252313
19	0xbce2744c	-0.027643345
20	0xbd4ed14a	-0.050492562
21	0xbd9740cb	-0.07385405
22	0xbd003944	-0.031304613
23	0xbcade83e	-0.021228906
24	0xbd7fae0c	-0.062421843
25	0xbdcf5fc9	-0.101256914
26	0xbd77c749	-0.060492788
27	0x3dc3f877	0.09568875
28	0x3e1e884a	0.15481678
29	0x3db3cb00	0.087789536
30	0x3ca0da94	0.019635476
31	0x3bec035e	0.00720255
32	0x3cf49f81	0.029861214
33	0xbe57a3db	-0.210586
34	0xbe53a129	-0.20666946
35	0xbe3eea03	-0.18643956
36	0xbbf7949d	-0.007555558
37	0xbd4b9525	-0.049702782
38	0xbc84bc85	-0.016203174
39	0x3bf0adf8	0.0073449574
40	0xbd394663	-0.04523314
41	0xbc4d4e1c	-0.01253083
42	0xbc4be60d	-0.012444985
43	0xbbc05f41	-0.00587073
44	0xbbb35e30	-0.0054738745
45	0xbdbfdd60	-0.09368396
46	0xbd1e820b	-0.038698237
47	0x3d4a11e0	0.049333453
48	0xbde04207	-0.10950094
49	0xbc827795	-0.015926162
50	0x3cad69c7	0.021168603
51	0xbdaccc42	-0.084373966
52	0xbd04e18d	-0.032441664
53	0x3d5fb6f4	0.054617837
54	0xbd9437df	-0.07237219
55	0x3c2847d7	0.010271034
56	0x3c2ea278	0.010658853
57	0xbd0e3eae	-0.034727745
58	0x3cf68947	0.030094756
59	0x3d41f200	0.04734993
60	0xbe005bff	-0.12535094
61	0xbd93cd67	-0.07216912
62	0x3d978142	0.07397701
63	0x3ce91646	0.028453004
64	0x3c69ff6a	0.014282087
65	0x3d69817b	0.057008248
66	0xbc0cb4b1	-0.008588002
67	0x3b0adc84	0.0021188566
68	0xbb9ae6f6	-0.0047272397
69	0xbc020bab	-0.007937352
70	0xbda5700c	-0.08078012
71	0xbd4b1908	-0.04958442
72	0x3ca44fe8	0.020057634
73	0x3c96cb59	0.01840751
74	0x3b9d22b4	0.0047953967
75	0x3c88cf1d	0.016700322
76	0x3c5d6061	0.013511748
77	0xbd2c1a36	-0.042017184
78	0xb888d220	-6.524124e-05
79	0xbd07ac7e	-0.033123486
80	0xbc7ea3c0	-0.015541971
81	0x3dabbfc8	0.08386189
82	0x3db41265	0.08792571
83	0x3d2604ab	0.040531795
84	0xbce876a5	-0.028376887
85	0xbdac3a4e	-0.08409558
86	0xbe2f610f	-0.17126869
87	0xbd38ff2e	-0.045165233
88	0xbe1ef088	-0.15521443
89	0xbddb6682	-0.10712911
90	0xbd636276	-0.05551382
91	0xbe3f0ef4	-0.18658048
92	0xbe34dac0	-0.17661572
93	0xbd393eb2	-0.045225807
94	0xbdd78752	-0.10523857
95	0xbde8dc51	-0.11370147
96	0x3e4fc9f1	0.20291878
97	0x3e88bdbe	0.26707262
98	0x3df649cd	0.12025795
99	0x3e2088b6	0.15677151
100	0x3cea0df1	0.0285711
101	0x3d91d41b	0.07120534
102	0x3db9f24b	0.09079417
103	0xbcd909e8	-0.026493981
104	0x3c1da9eb	0.009623031
105	0x3e012e26	0.1261526
106	0x3d9123a3	0.07086875
107	0x3d656219	0.056001756
108	0x3e00bde2	0.12572435
109	0x3e0d02d6	0.13770613
110	0x3e0ff546	0.14058408
111	0x3d943ea6	0.07238512
112	0x3dd67fcc	0.10473594
113	0xbc08cd90	-0.008349791
114	0xbe012f0d	-0.12615605
115	0xbe0eb854	-0.13937503
116	0xbe35c0cb	-0.17749326
117	0x3dc19c34	0.094536215
118	0x3e349d42	0.17638114
119	0x3e092b98	0.13395536
120	0xbda826b2	-0.082105055
121	0x3d77f563	0.060536753
122	0x3d6b65a2	0.05746997
123	0xbe62f7a8	-0.22164786
124	0xbe6cd95f	-0.23129795
125	0xbe201268	-0.15632021
126	0xbd96678f	-0.07343971
127	0xbdc86c06	-0.09786229
128	0xbc52326b	-0.012829403
129	0xbdb0d2fb	-0.08633991
130	0xbda3ffdc	-0.08007786
131	0xbc104542	-0.008805575
132	0xbe33ded6	-0.17565474
133	0xbe1730d0	-0.14764714
134	0xbd954efa	-0.07290454
135	0xbc04cf8c	-0.008106124
136	0x3bc1caa5	0.0059140497
137	0xbc4aa4c5	-0.012368386
138	0xbd735f9e	-0.05941736
139	0x3bb335f2	0.0054690773
140	0xbd3653d6	-0.044513546
141	0x3c3d31c2	0.011547508
142	0xbd63d5d6	-0.05562385
143	0xbd709d9a	-0.05874405
144	0xbd0159e1	-0.031579856
145	0x3ca1cb4b	0.019750258
146	0x3d5af037	0.053451743
147	0xbd7abc39	-0.06121466
148	0x3c841813	0.01612476
149	0x3bac8cd5	0.005265812
150	0xbe2436f2	-0.16036585
151	0xbe0a75ee	-0.13521549
152	0xbe2fc8a4	-0.17166382
153	0xbc031b87	-0.0080021685
154	0xbe0e4489	-0.13893332
155	0xbe0b745b	-0.13618605
156	0x3e3dea12	0.18546322
157	0x3d860ee0	0.06545806
158	0xbe25f036	-0.16204914
159	0x3e5fecc4	0.21867663
160	0x3e116bb0	0.14201236
161	0xbe190107	-0.14941798
162	0x3d4ab024	0.049484387
163	0x3dad003c	0.0844731
164	0x3d48ffcc	0.049072072
165	0xbdc9d82b	-0.09855684
166	0xbdf50028	-0.119629204
167	0xbdf88df8	-0.121364534
168	0xbdb5ba97	-0.0887348
169	0xbdc5799f	-0.09642338
170	0xbd227487	-0.03966191
171	0xbd3c90a7	-0.04603639
172	0xbb852161	-0.004062817
173	0x3c20c986	0.009813672
174	0xbca72084	-0.020401247
175	0xbc50aa0d	-0.012735856
176	0xbc90b45d	-0.017664129
177	0x3d6557de	0.055992
178	0x3d881f09	0.066465445
179	0x3caf7296	0.021416944
180	0xbd2d041a	-0.04224024
181	0xbdd13e80	-0.10216999
182	0xbca655e8	-0.020304635
183	0x3d85170a	0.06498535
184	0xbcaa735a	-0.020806957
185	0xbdf2aa39	-0.11848874
186	0x3cddabb2	0.02705941
187	0x3d248598	0.040166467
188	0xbc7ad73c	-0.015310105
189	0x3c141c4b	0.009039949
190	0x3d68076c	0.056647703
191	0x3c6a98dc	0.014318671
192	0x3d39d9c2	0.045373686
193	0x3bfbee8b	0.0076883486
194	0xbd034536	-0.032048427
195	0xbc65c60d	-0.01402427
196	0xbd0cf536	-0.03441354
197	0xbd115c69	-0.03548852
198	0xbd66ede3	-0.05637921
199	0xbca19b14	-0.019727267
200	0xbda92e19	-0.082607456
201	0xbd43f436	-0.04784032
202	0xbd841a49	-0.06450326
203	0xbdb1e8c7	-0.08686977
204	0xbd661413	-0.056171488
205	0xbce31a97	-0.02772264
206	0xbd0e1262	-0.0346855
207	0xbcf7e685	-0.030261287
208	0xbce08be1	-0.02741045
209	0xbc3fa810	-0.011697784
210	0x3cc7ff81	0.024413826
211	0x3d520b70	0.05128044
212	0xbc461934	-0.01209097
213	0x3d528590	0.051396906
214	0x3d4f321e	0.050584905
215	0x3cc69634	0.024241544
216	0x3d1491df	0.036271926
217	0x3ca8f74e	0.020625737
218	0x3c92c9b3	0.017918443
219	0x3c089f14	0.008338708
220	0xbc106847	-0.008813924
221	0x3c7fd576	0.015614858
222	0xbdba1629	-0.09086258
223	0xbe1dd6dd	-0.15413995
224	0xbd91ffa1	-0.071288355
225	0x3d72c982	0.059274204
226	0x3d8f5d9d	0.07000277
227	0x3ccc94c9	0.02497329
228	0x3cf470c8	0.029838935
229	0x3c407691	0.011747018
230	0xbd91b437	-0.071144514
231	0xbd9ad683	-0.07560446
232	0xbd925ec9	-0.07146985
233	0xbdd4dea7	-0.1039403
234	0xbcf160db	-0.02946513
235	0xbbbc2a67	-0.0057423594
236	0x3c5580c1	0.013031186
237	0xbd9df6b6	-0.07713072
238	0xbc559fbc	-0.013038572
239	0x3b25b7e5	0.0025286612
240	0x3cbba710	0.02290681
241	0x3ca6ac3d	0.020345801
242	0x3c8118d9	0.015758919
243	0xbd71aa2c	-0.05900018
244	0xbdb2a0e2	-0.08722092
245	0xbd453c80	-0.0481534
246	0xbd560c44	-0.05225779
247	0xbe0f06a9	-0.13967384
248	0xbdb66cfd	-0.089075066
249	0x3db12aff	0.08650779
250	0x3db7ed57	0.08980816
251	0x3dbc2331	0.091864
252	0x3d97cb51	0.074118264
253	0x3e13177e	0.1436443
254	0x3d9be4b6	0.076119825
255	0x3ce909de	0.028447088
