model3/conv5_weight.npy (npy, 147584 bytes, 1 tensors)

array f4 [64, 64, 3, 3]
0.0067819357 0.0075898133 0.039552156 0.00830869 -0.00538899 -0.025884625 -0.038127154 0.01587601
-0.0037313886 0.010125052 0.03820539 0.03751037 0.023687955 -0.026745927 -0.04100337 0.04123326
0.018043485 0.027616154 0.015653122 -0.0076379813 0.03846355 -0.01146163 0.012059916 -0.011264458
-0.021633312 0.012907207 0.039053027 0.009882644 0.031124536 -0.00046851113 -0.021567797 0.009005323
0.040614847 0.010715354 -0.038936414 -0.0037529208 -0.03087489 -0.008497238 -0.004982397 0.023152154
-0.03494134 -0.016468521 0.013090447 0.014417555 -0.03662739 -0.0037771203 0.0019381009 0.00034965947
-0.021706041 -0.02425392 -0.017068338 0.011467207 0.027134795 0.028257463 -0.03388489 0.015477251
0.020246252 0.019618321 0.036482003 -0.030765742 -0.010789882 0.026053254 0.014184434 0.018444106
0.017853051 -0.0039844476 0.02875125 -0.03116643 0.0216556 0.00077952445 -0.023831114 0.030547004
-0.006864857 0.037106942 0.012252536 0.03582481 -0.012914505 -0.020915613 -0.02317537 -0.019439345
-0.00386855 0.0052543245 0.025834028 -0.02209584 -0.0016864352 0.023273114 -0.0011899136 -0.036977805
-0.0029911697 0.0098898895 0.0353419 0.03474312 -0.018136423 0.012534622 -0.0043056644 -0.009830061
-0.023425838 -0.03828662 0.032642927 0.02022402 -0.021522507 -0.023620948 -0.02164657 -0.037489504
-0.02079615 0.030618321 0.032934036 -0.0023614056 0.0034443624 0.021452311 0.006713327 0.030796964
0.004407659 0.011375625 0.034545142 0.008638456 -0.010258302 -0.008578137 0.020560432 -0.025369853
-0.013697615 -0.027919244 0.020518128 -0.009586468 -0.0039359666 0.0012661666 0.0013111196 -0.014190525
0.020046711 -0.00575741 0.016626995 0.04009713 0.012830049 0.0028412603 0.03236245 0.00019181892
-0.0046965145 -0.016653469 0.03903542 0.03372326 0.011685967 -0.023775946 0.0193947 0.0036432557
0.019992229 0.016894158 0.03685992 -0.033204895 1.7832965e-05 0.0006066859 -0.00079251453 0.003474608
0.03935385 0.0034176596 -0.014471924 0.038636778 -0.014905736 0.0028170347 -0.01561532 0.040276457
0.0109752305 0.037031967 -0.027176267 0.03523652 0.031458456 -0.013677761 0.0356963 0.009781402
-0.015367275 0.0054081082 -0.026410744 -0.013076495 0.03668506 0.022697378 0.038980145 0.015839696
-0.0027798451 -0.037641145 0.016336929 -0.025472816 -0.030906424 0.0008360408 -0.026571115 -0.019877559
0.027178798 0.037965912 -0.036747582 -0.010698006 -0.0064420104 -0.018466812 -0.015684035 -0.017417198
-0.03007175 0.03490593 -0.00040105358 -0.00922342 0.018682647 -0.033779334 -0.013466269 -0.01861479
0.024066154 -0.026127141 0.017762106 0.025457297 0.032888826 -0.012411654 0.018667381 -0.008547444
0.020909596 0.028579827 -0.03572009 -0.0048212707 0.01771371 0.0371862 -0.025384074 -0.03292749
-0.031318672 0.009657472 0.017862033 0.009027988 -0.02227521 -0.022644505 0.030195702 -0.0012057163
-0.00051610544 -0.028718298 0.00032276288 0.031913657 6.6358596e-05 -0.019723311 0.041411173 0.03583095
-0.016146839 0.036876824 -0.014268737 0.02123722 0.024052117 -0.025424685 0.0039396025 0.026727278
-0.017428901 0.0035430752 0.031883705 -0.030969754 0.01947612 -0.004370872 -0.021529254 -0.0061015375
0.0123354755 -0.029759925 0.03654745 0.022477765 0.03670538 0.012823429 0.019233849 -0.014377788
00000000: 003b de3b f8b3 f83b 7101 223d 2c21 083c
00000010: 2096 b0bb fe0b d4bc 382b 1cbd 680e 823c
00000020: 508a 74bb 8ce3 253c 417d 1c3d 79a4 193d
00000030: 3e0d c23c 461a dbbc 26f3 27bd 35e4 283d
00000040: eecf 933c 463b e23c fa3a 803c 0848 fabb
00000050: f58b 1d3d 90c9 3bbc f496 453c 908e 38bc
00000060: 5838 b1bc c078 533c 11f6 1f3d d0ea 213c
00000070: e2f8 fe3c 80a2 f5b9 f3ae b0bc 108b 133c
00000080: c15b 263d 748f 2f3c ca7b 1fbd 90f3 75bb
00000090: 56ed fcbc 0038 0bbc 6043 a3bb 96a9 bd3c
000000a0: a71e 0fbd fee8 86bc 5079 563c 9c37 6c3c
000000b0: 9a06 16bd 9089 77bb e007 fe3a 8052 b739
000000c0: ded0 b1bc 28b0 c6bc e6d2 8bbc f4e0 3b3c
000000d0: ca49 de3c 327c e73c e2ca 0abd 4c94 7d3c
000000e0: 78db a53c 9ab6 a03c 276e 153d 7008 fcbc
000000f0: 0cc8 30bc a26d d53c d465 683c 1818 973c
00000100: 9040 923c f88f 82bb be87 eb3c be50 ffbc
00000110: 1667 b13c 0059 4c3a 7839 c3bc b63d fa3c
00000120: 98f2 e0bb 73fd 173d dcbe 483c 09bd 123d
00000130: 5c97 53bc 3857 abbc 46da bdbc 433f 9fbc
00000140: 8087 7dbb 782c ac3b e2a1 d33c 5602 b5bc
00000150: 600b ddba 42a7 be3c e0f6 9bba 0a76 17bd
00000160: 8007 44bb 3409 223c abc2 103d cd4e 0e3d
00000170: d692 94bc 045e 4d3c 8816 8dbb 440e 21bc
00000180: 8be7 bfbc 6ed2 1cbd 97b4 053d d8ac a53c
00000190: f84f b0bc b880 c1bc 2654 b1bc 988e 19bd
000001a0: b05c aabc 46d3 fa3c d7e5 063d d0c1 1abb
000001b0: d0ba 613b c2bc af3c 78fb db3b ea49 fc3c
000001c0: 206e 903b d460 3a3c 357f 0d3d 5088 0d3c
000001d0: 7012 28bc 508b 0cbc 5a6e a83c 70d4 cfbc
000001e0: f66b 60bc e6b6 e4bc a215 a83c 9010 1dbc
000001f0: 48f9 80bb 80f5 a53a e0d9 ab3a 607f 68bc
00000200: 0039 a43c a8a8 bcbb 5635 883c e33c 243d
00000210: 2035 523c 7034 3a3b 7d8e 043d 0023 4939
00000220: 38e5 99bb db6c 88bc 9be3 1f3d 6721 0a3d
00000230: 8076 3f3c c6c5 c2bc a2e1 9e3c b0c3 6e3b
00000240: bec6 a33c 9e65 8a3c 6dfa 163d db01 08bd
00000250: 0098 9537 000a 1f3a c0c0 4fba 40b6 633b
00000260: 8131 213d d0fa 5f3b a61b 6dbc 9941 1e3d
00000270: 3037 74bc 009e 383b 66d7 7fbc edf8 243d
00000280: 74d1 333c d5ae 173d c3a0 debc 2b54 103d
00000290: 95da 003d b018 60bc 4936 123d 2c42 203c
000002a0: 06c7 7bbc 8036 b13b 585b d8bc cc3e 56bc
000002b0: 1343 163d daef b93c a5a9 1f3d 40c2 813c
000002c0: 102e 36bb 9a2d 1abd 06d5 853c 5eac d0bc
000002d0: 782f fdbc c029 5b3a abab d9bc 43d6 a2bc
000002e0: 12a6 de3c 2582 1b3d a284 16bd b046 2fbc
000002f0: 8017 d3bb b647 97bc ce7b 80bc 83ae 8ebc
00000300: 0859 f6bc 85f9 0e3d 8044 d2b9 d41d 17bc
00000310: 5a0c 993c 335c 0abd a0a1 5cbc 0b7e 98bc
00000320: 6226 c53c 9608 d6bc d681 913c d28b d03c
00000330: 6fb6 063d 405a 4bbc 56ec 983c 940a 0cbc
00000340: 9a4a ab3c 3e20 ea3c 3b4f 12bd c0fb 9dbb
00000350: 581c 913c 8f50 183d 43f2 cfbc fade 06bd
00000360: 0248 00bd 603a 1e3c 6653 923c 20ea 133c
00000370: 807a b6bc f880 b9bc fa5c f73c 2009 9eba
00000380: 404b 07ba a342 ebbc 8038 a939 e5b7 023d
00000390: 002a 8b38 c892 a1bc c39e 293d 79c3 123d
000003a0: 6046 84bc 270c 173d 6cc7 69bc aef9 ad3c
000003b0: f208 c53c 6e47 d0bc c817 813b 2af3 da3c
000003c0: 0ec7 8ebc f032 683b 7d98 023d 48b4 fdbc
000003d0: 628c 9f3c 8839 8fbb 1e5e b0bc 68ef c7bb
000003e0: bc1a 4a3c 16cb f3bc c7b2 153d 4a23 b83c
000003f0: 6158 163d 5c19 523c 4e90 9d3c d090 6bbc
