model3/conv12_weight.npy (npy, 589952 bytes, 1 tensors)

array f4 [128, 128, 3, 3]
000000 ef eb 8e 3c 3f c7 dd bc ac 67 93 3b f0 f6 a0 bc
       0.017446486 -0.027072547 0.0044984426 -0.019648999
000010 9e 56 22 3c e6 83 08 3c c4 95 23 bc fc a9 10 bc
       0.009908346 0.008332228 -0.009984437 -0.00882959
000020 c7 11 a5 3c 66 6d e0 bc 3c 2c ae bb 92 92 73 3c
       0.020150078 -0.027395915 -0.0053153317 0.014866488
000030 62 1b 82 bc e6 b6 db bc a8 90 cf bb 99 1f d4 3c
       -0.015882198 -0.026820611 -0.006334383 0.025893973
000040 2f 11 c3 3c 48 ce c5 bc 84 a1 05 bc 1a c8 1e 3c
       0.023811905 -0.024146214 -0.008156184 0.009691263
000050 db 45 80 bc 4b e5 e8 3c 64 18 90 3b 18 01 fe bb
       -0.01565831 0.028429648 0.004397439 -0.007751595
000060 4c 3e be bc cc 26 a3 bc ea 72 f0 bc 1a e1 3b 3c
       -0.023223065 -0.01991596 -0.02935167 0.011467243
000070 2c 32 c2 bc 7c 33 c2 3b 14 60 c5 3b 28 45 8c bc
       -0.023705564 0.0059265476 0.0060234163 -0.01712282
000080 9d dc 8d bc d8 28 19 bb 03 87 d5 3c bf d9 9b 3c
       -0.01731711 -0.0023370292 0.026065355 0.019024728
000090 ca 7d aa bc c0 4f e7 bc 7f 2a d2 bc 48 dc 39 bb
       -0.020811934 -0.02823627 -0.02565503 -0.0028360058
0000a0 46 0a 4e 3c af 49 cf bc ac 01 c7 3b 99 07 cf 3c
       0.012575692 -0.02530369 0.0060731973 0.025272178
0000b0 f1 75 dd 3c 0e 3c e0 bc 90 2a 9b bc 6c e7 c2 3b
       0.027033778 -0.027372386 -0.018941194 0.005947998
0000c0 ff 63 dc 3c 09 a0 d2 3c b6 9d 77 3c 82 62 39 3c
       0.02690315 0.025711076 0.015113285 0.01131499
0000d0 a0 12 b4 3a 8b 2e eb 3c fc 38 e7 bc af 90 d1 bc
       0.0013738461 0.028708717 -0.028225414 -0.025581686
0000e0 5a 05 21 bc 19 62 dc bc fa 58 70 3c 16 7e 70 3c
       -0.009827936 -0.026902245 0.014669651 0.014678499
0000f0 e8 78 88 bb ab d3 c7 3c 20 ba de ba 03 de 9e 3c
       -0.004164804 0.024392923 -0.0016992725 0.019392973
000100 17 63 cb 3c 62 22 01 3c 4c 82 88 3b 86 d0 9d bc
       0.024827523 0.007881733 0.004165923 -0.01926447
000110 17 f7 e3 3c a0 01 e1 bc fc 29 d8 bc 99 37 9e 3c
       0.027827783 -0.027466595 -0.026387207 0.01931362
000120 12 4c 09 bc 8e 6a 1b 3c 47 75 b9 3c 1d 3f ec 3c
       -0.008379953 0.009485854 0.02263893 0.028838689
000130 d3 15 ca bc 56 f1 80 bc 2b 59 be bc 02 ad 43 bc
       -0.02466861 -0.015740078 -0.023235878 -0.011943104
000140 40 57 71 3a 40 3d 1b 3a 6e e5 c7 bc c2 5b 1f 3c
       0.00092064217 0.0005921908 -0.024401393 0.009726467
000150 e2 e1 ab bc 50 6b aa 3a 72 db 70 3c 0c ca b6 3b
       -0.020981733 0.0013001952 0.014700757 0.005578285
000160 82 9a 29 bc 0a 23 5a bc 96 4e 0d 3c 20 8f 78 bc
       -0.010351779 -0.013314018 0.008624693 -0.015170842
000170 28 18 0d 3b 4e 9f 18 3c a1 0e d9 3c 85 00 b5 3c
       0.002152929 0.009315325 0.026496233 0.022094974
000180 04 0b e8 bb b9 4d 92 3c b4 9a fc 3b 12 fb 7f 3c
       -0.0070813913 0.017859327 0.0077088717 0.015623825
000190 54 7b ce bb 0c 30 85 bb c6 7a c3 bc 30 7a ee bb
       -0.006301323 -0.0040645655 -0.023862254 -0.0072777495
0001a0 43 f8 d5 3c fd 7e ee bc 2e 48 5b bc 72 89 42 bc
       0.026119357 -0.029113287 -0.013383908 -0.01187359
0001b0 0c 5c c5 3b fd aa 8d 3c a1 5e c4 bc 5f 81 d1 bc
       0.0060229357 0.017293448 -0.023970904 -0.025574384
0001c0 e5 fc c9 3c 40 a5 15 bc d4 22 d9 3b 87 ef ba 3c
       0.024656722 -0.009133637 0.0066264663 0.022819294
0001d0 90 a3 22 bb a0 15 a0 bc c2 b4 13 3c e8 5d 77 3b
       -0.002481673 -0.019541562 0.009015264 0.0037745181
0001e0 52 59 82 bc 06 10 74 3c 60 2e 49 bc 4e 85 a8 bc
       -0.015911732 0.014896398 -0.012279123 -0.020571377
0001f0 c5 85 da 3c e6 8b 16 3c 18 34 e3 bb 48 98 57 bb
       0.026675114 0.009188628 -0.0069337003 -0.0032897163
000200 4c 01 de bc e6 c2 20 bc d6 74 39 3c 80 6f 13 39
       -0.027100228 -0.009812092 0.01131936 0.0001406055
000210 14 2e 9a bb 40 9b c8 39 de 29 73 3c c6 2f 18 bc
       -0.0047052 0.00038262643 0.014841525 -0.009288734
000220 64 af 9e 3b e4 52 84 bc 34 9b b1 3b cb 3e 9a 3c
       0.0048426855 -0.016152807 0.005420113 0.01882877
000230 20 75 13 3a a6 ef 8a bc 72 4c 29 bc 42 86 33 3c
       0.0005625058 -0.016959976 -0.010333167 0.0109573025
000240 ad 7d c1 3c d7 71 d9 bc f0 bb 9a bb 62 0a 15 3c
       0.023619497 -0.02654354 -0.004722111 0.009096714
000250 81 d5 81 3c 66 a8 7c bc 43 1c a9 3c 55 27 87 3c
       0.015848877 -0.015421009 0.020643359 0.016498247
000260 9c 53 e3 3b 83 98 bf 3c ac 46 e6 bb 74 56 8b bc
       0.0069374572 0.023388153 -0.0070274677 -0.017008997
000270 98 31 bc bb 63 9b 9a 3c a8 0d 2d 3b 98 fd f3 bb
       -0.0057432167 0.018872922 0.0026405845 -0.007446002
000280 c8 3a 60 bc 41 6b c0 bc 08 f6 91 bc a1 b5 93 3c
       -0.01368589 -0.023488643 -0.017817512 0.018030943
000290 59 97 d0 3c 10 a6 c5 3a b4 27 dc bc a0 e8 5f ba
       0.025462793 0.0015079398 -0.0268744 -0.0008541439
0002a0 68 71 f0 bb 13 3a ce 3c 67 d5 b6 3c fa 46 35 3c
       -0.007337738 0.025174176 0.022318555 0.011064285
0002b0 ed b9 ca bc 08 1d 6a bc e0 15 0b ba 11 7e 93 3c
       -0.02474686 -0.014289148 -0.0005305689 0.01800445
0002c0 a7 bf 9d 3c 4a 35 1f 3c b6 94 82 bc e7 c2 e9 3c
       0.019256426 0.009717295 -0.015940052 0.02853532
0002d0 68 dc 2f 3b 77 63 ca 3c da fa 6a 3c 24 fb f9 bb
       0.0026834253 0.024705632 0.014342034 -0.0076288152
0002e0 b1 69 bc bc 0a a9 3a bc 44 17 a1 bb d9 9f f0 3c
       -0.022999616 -0.011392841 -0.0049161036 0.029373096
0002f0 27 4b e2 3c 2f 7b 8f 3c 9a 5f 69 3c 3e d3 44 3c
       0.027623726 0.017514793 0.014243985 0.012013255
000300 d4 da ad bb c3 10 8d bc 57 80 65 bc 1e e3 22 3c
       -0.0053056274 -0.017219907 -0.014007649 0.009941844
000310 5f 44 a3 3c 0b 5e e5 bc ff e4 97 3c 71 bf a2 3c
       0.019930063 -0.027998945 0.018541811 0.019866677
000320 5c 2e 13 bc e5 b2 a4 3c 14 82 84 3b 85 ae 6a bc
       -0.008983221 0.020104835 0.004043827 -0.014323835
000330 40 8e 5d 3a 6e 0d ae bc 31 d3 98 3c e1 5c f0 3c
       0.0008451678 -0.021246638 0.018655391 0.029341163
000340 c4 66 fc 3b 35 f2 eb 3c 33 a3 e4 3c ec ac d2 bc
       0.0077026803 0.028802017 0.02790985 -0.025717221
000350 50 05 62 bb 10 45 8d bc 88 b0 0e 3b 3b c0 dc bc
       -0.003448803 -0.017244846 0.0021772701 -0.026947131
000360 5c ec dd 3b 3f 15 c5 3c 63 68 89 3c 8b e6 b2 3c
       0.006772561 0.024057982 0.016773408 0.021838447
000370 a4 f8 a2 3b 7e d0 c3 bc 54 8f 4e bc 6e c6 53 3c
       0.004973488 -0.023903128 -0.012607414 0.012925727
000380 ee f1 82 bc d9 f9 bf 3c dc 5a d5 3b 09 2d b7 3c
       -0.015984502 0.023434566 0.0065110754 0.022360342
000390 e0 25 6a ba ee 66 2c 3c 8a 7b 2b 3c 54 ed 93 3b
       -0.00089320354 0.010522587 0.010466466 0.0045143757
0003a0 ac 4f aa bc c0 0e 89 39 56 9b 1c 3c d6 96 3e bc
       -0.020789944 0.00026141666 0.009558519 -0.011632642
0003b0 4d ac c7 3c 9a 37 1c 3c 92 36 63 3c 08 8b 79 bc
       0.024374152 0.009534741 0.013867991 -0.015230902
0003c0 d2 4f 46 bc bf 4e a9 3c 00 2f c5 b9 48 f3 24 bc
       -0.012103992 0.020667432 -0.00037609786 -0.010067768
0003d0 2b e7 a1 3c b7 e2 88 3c f1 0e 9e bc 42 ba 6a bc
       0.01976355 0.016709669 -0.019294234 -0.014326634
0003e0 c8 07 0b bc 9c 63 b9 3b 7e 12 2f bc c3 ab 81 bc
       -0.008485742 0.0056576263 -0.010685561 -0.015828973
0003f0 ae 35 56 3c f4 aa ea 3b 0f 3e bd bc 6a ee 7e 3c
       0.013074322 0.0071614925 -0.02310088 0.015559772
