model3/conv5_weight.npy (npy, 147584 bytes, 1 tensors)

array f4 [64, 64, 3, 3]
000000 3e 4f 85 3c c3 62 85 bc ee 79 e6 bc 00 ca c2 3a
       0.016273137 -0.016282445 -0.028134312 0.0014861226
000010 38 a2 83 3c c8 f8 b7 bb 60 46 f8 bc 60 05 67 3c
       0.016068563 -0.005614374 -0.030306995 0.014100403
000020 f6 2b 94 3c 93 05 8e bc a8 16 9c bc c0 33 01 3a
       0.018087368 -0.017336642 -0.019053772 0.0004928671
000030 bc ce 5b bc 1a 54 ef 3c 5c d1 25 3c 8a 19 e3 3c
       -0.013415989 0.029214907 0.010120716 0.027722139
000040 09 5f 24 3d 7b 57 e9 bc 58 41 94 3c 20 0d 9f 3a
       0.040129695 -0.028484097 0.018097565 0.0012134649
000050 c8 cb 11 bd ca 38 f0 3c 90 ca 99 3c 76 ae 4f bc
       -0.03559473 0.029323954 0.018773347 -0.012675872
000060 0b 90 1c 3d c0 55 32 ba 40 3b 23 3c de c2 e9 bc
       0.038223308 -0.0006802939 0.009962857 -0.028535303
000070 50 1a 22 3b 7b ba fb bc fb 5c ff bc 43 ac 98 bc
       0.0024734922 -0.03072857 -0.031172266 -0.018636828
000080 3f 4b 29 bd 62 79 df 3c 00 4e 0e 3a 2c d8 68 3c
       -0.041331526 0.02727956 0.0005428493 0.014211696
000090 f8 af 86 3b b9 fd 19 3d 4c c9 65 bc 6c bf 08 3c
       0.0041103326 0.037595484 -0.014025044 0.00834642
0000a0 a0 ad ec ba 13 7a 8b bc 5d 1a 1e 3d 80 63 86 bb
       -0.0018057115 -0.017025983 0.03859936 -0.004101217
0000b0 7c 95 36 3c 13 07 f0 bc 8b 82 a0 bc 30 29 7b 3c
       0.011144038 -0.029300248 -0.019593498 0.015329644
0000c0 cb 3d 21 3d f2 e6 b1 3c ee 5b 92 bc 80 f4 cd 3a
       0.03936557 0.021716569 -0.017866101 0.0015713125
0000d0 98 5f 8b 3c 88 d9 a1 3c 89 c2 15 3d 0e 5e cd 3c
       0.017013356 0.019757047 0.036562476 0.025069263
0000e0 f9 45 05 3d 78 b5 e6 bb dc 7d 7c 3c 07 03 0f bd
       0.032537434 -0.0070406757 0.015410867 -0.034914996
0000f0 d0 91 55 bc ad c6 10 3d d0 b3 b5 bc 9a 90 96 3c
       -0.013035253 0.035345722 -0.022180468 0.018379498
000100 30 ab 12 3c 18 53 ee 3b c0 23 ee bc 56 7f 05 bd
       0.008951947 0.007273089 -0.029069781 -0.03259214
000110 60 d5 43 3c 66 02 82 3c 6e 09 b5 3c 78 26 d6 bb
       0.011952728 0.015870284 0.022099223 -0.0065353476
000120 3c 3a 27 bc 38 25 b6 bb fd d2 02 3d 28 cb bb 3b
       -0.010206755 -0.005558636 0.031939495 0.005731005
000130 69 ab 24 3d fe 0f d4 3c 90 5e 69 bc 9a b9 ea 3c
       0.040202532 0.025886532 -0.014243737 0.028652955
000140 08 8c d4 bc 56 41 df bc 03 22 ee bc d9 ee 1b 3d
       -0.025945678 -0.027252834 -0.029068952 0.03806958
000150 e0 2a 58 3c 4c d0 5e bc 00 e6 ac 3b e6 df e7 3c
       0.013193816 -0.0135994665 0.0052764416 0.028305005
000160 c4 33 07 bd 70 d7 28 bb d8 d9 d2 3b aa 73 26 bd
       -0.033008352 -0.0025763176 0.0064346604 -0.04063765
000170 eb f2 10 3d bb 5f 1f 3d 13 bf e4 bc 1a f7 82 3c
       0.035387915 0.038909655 -0.027923143 0.015986968
000180 9e 61 e2 bc 08 a2 c0 bc 58 ce 91 bb 00 90 3f 37
       -0.027634438 -0.023514763 -0.004449647 1.1418015e-05
000190 1d 80 05 3d 77 72 28 bd 06 37 da bc 12 da aa 3c
       0.03259288 -0.041124787 -0.026637565 0.020855937
0001a0 17 66 07 3d ca 00 cf 3c 58 f7 88 3c f8 8c 83 3b
       0.033056345 0.025268931 0.016719505 0.0040146075
0001b0 10 79 0a bd a9 6f 1b 3d 70 58 71 3b 86 45 d4 bc
       -0.03380686 0.037948284 0.0036826394 -0.025912058
0001c0 90 37 3a 3c 21 2a 10 3d e2 db 99 3c d4 df 17 bc
       0.011365786 0.035196427 0.018781606 -0.009269673
0001d0 a3 d8 15 3d 43 2a ef bc 06 9c 27 bd 0b df 92 bc
       0.036583554 -0.029194957 -0.04092028 -0.01792862
0001e0 0f 9d 0b bd 62 5e c2 3c 56 3a 72 bc cb c6 80 bc
       -0.03408533 0.023726646 -0.014784416 -0.015719792
0001f0 b5 95 12 3d 54 17 20 bc 73 de 99 bc c0 9b 5a 3b
       0.035787303 -0.009771187 -0.01878283 0.0033356994
000200 92 46 ec 3c d0 5a 9f 3c ab 65 17 3d 30 d7 4d bb
       0.028842244 0.019452482 0.036962193 -0.003140878
000210 f8 a2 c6 bc 5c 8c 01 3c d8 35 0b bd e2 d9 12 bd
       -0.024247631 0.007906999 -0.033986896 -0.03585232
000220 96 db fc bc 60 c4 a4 bb dc 19 03 bc 4a 64 df 3c
       -0.030866425 -0.0050282925 -0.008001771 0.027269501
000230 d0 37 f4 bc 2e 85 ba bc ca 50 cc 3c 00 4b 6b bc
       -0.02981177 -0.022768583 0.024940867 -0.014361143
000240 c3 48 ae bc 4e aa ce 3c 34 d2 08 bd 96 0d 17 bd
       -0.02127493 0.025227692 -0.03340359 -0.03687819
000250 30 2e 03 bb b8 30 0e bd ab c9 29 bd 00 0a e8 bb
       -0.0020016544 -0.03471443 -0.04145209 -0.00708127
000260 93 72 bd bc 2a ce 1c bd a0 8d af bb 88 cc b1 bc
       -0.023125922 -0.03828255 -0.005357459 -0.021703973
000270 c3 c9 e9 bc de 4a a6 bc e7 59 27 3d e1 40 00 3d
       -0.02853859 -0.020299371 0.040857222 0.031311873
000280 db c4 03 3d 23 95 c1 bc ef 01 23 3d 36 b7 87 3c
       0.032170158 -0.023630684 0.039796766 0.016566854
000290 52 31 b6 3c a4 b2 01 bc 48 1a 95 3c bd d6 10 3d
       0.022240315 -0.007916126 0.018201008 0.03536104
0002a0 36 df d4 3c a4 6f 2e 3c b0 f2 fb bc 98 70 b1 bc
       0.025985342 0.010646734 -0.03075537 -0.021660134
0002b0 25 ac 01 3d 00 a0 17 bb bb 50 d2 bc 86 ca aa 3c
       0.03165831 -0.002313614 -0.02567326 0.020848524
0002c0 a8 2b a0 bc 18 6e fc bb 45 83 29 3d cc 70 4c 3c
       -0.019552067 -0.007703554 0.041384954 0.012478065
0002d0 f6 d1 6b bc 28 42 e6 bb c1 59 29 3d 28 d8 a3 3c
       -0.01439332 -0.0070269294 0.04134536 0.020000532
0002e0 a2 c2 fd 3c 71 5a 0a 3d 7b d6 14 bd 9c f6 08 bc
       0.030976597 0.033777658 -0.036337357 -0.0083595775
0002f0 80 df c6 ba 16 75 da 3c 66 90 c7 bc 43 07 d8 bc
       -0.0015172809 0.026667159 -0.024360847 -0.02637065
000300 18 43 a2 bb 1f 7f 0c 3d d0 75 97 bc 30 46 67 bc
       -0.004951846 0.03430092 -0.018488795 -0.014115855
000310 90 d3 02 3b 24 c8 52 3c c0 12 85 3c 48 b7 af bc
       0.0019962527 0.0128651 0.016244292 -0.0214497
000320 78 84 d1 bb ac 61 5d bc 60 72 d2 bc e0 dc 4f 3c
       -0.0063939653 -0.013512056 -0.025689304 0.012686938
000330 83 1c bb bc f4 11 17 3c 75 6c 09 3d 1a fc a4 3c
       -0.022840744 0.009220589 0.0335507 0.020139743
000340 00 8a ab bc 26 0f a0 3c 16 7f 42 bc 27 87 17 3d
       -0.020939827 0.019538473 -0.01187112 0.036994126
000350 2b c3 e3 bc c6 3d 24 bd 76 0b b0 3c 5e a3 ce 3c
       -0.027803024 -0.040097974 0.02148984 0.025224384
000360 1c 65 28 bd ae 73 a8 bc d0 86 37 3b 88 50 fa 3b
       -0.04111205 -0.020562973 0.0028003938 0.0076389946
000370 3e 0a bc 3c 0e 5a 04 bd 46 81 06 bd f4 e1 23 bc
       0.022954103 -0.032312445 -0.03283813 -0.010002602
000380 2b 86 ed bc 44 98 1c 3c 14 ab 01 3c 64 5a 08 bc
       -0.02899464 0.009557787 0.007914323 -0.008322332
000390 ee 71 26 bd 00 70 95 ba 86 87 df bc 32 f6 ac 3c
       -0.040635996 -0.0011401176 -0.027286302 0.021113489
0003a0 f8 ac 83 bb 50 7a 10 bb 00 77 3c bc 12 2e d8 3c
       -0.004018422 -0.002204556 -0.011502981 0.026389156
0003b0 f2 0b dc 3c 80 ef 7c bb e8 db d9 bb 0a 57 d0 3c
       0.026861165 -0.0038594902 -0.0066485293 0.025432128
0003c0 86 23 f3 3c 98 98 ad 3b bd 55 04 3d 3b ad bd bc
       0.029680025 0.0052977316 0.03230833 -0.023153892
0003d0 4f c3 22 3d bb 12 8d bc e3 b6 f7 bc a9 40 06 3d
       0.039737042 -0.017220845 -0.030238574 0.03277651
0003e0 60 6a c6 3b 30 3e 6c 3c 2e 5a be bc 4c b2 1f bc
       0.0060551614 0.0144191235 -0.02323636 -0.009747099
0003f0 81 11 11 3d 60 d0 b4 3a 37 e4 24 3d 3b 97 da bc
       0.035417084 0.0013795011 0.040256705 -0.02668344
