model3/conv16_weight.npy (npy, 589952 bytes, 1 tensors)

array f4 [128, 128, 3, 3]
0	0x3cd74445	0.02627767
1	0xbb9c20cc	-0.004764652
2	0xbbd7462c	-0.0065696444
3	0x3cc9b33b	0.024621597
4	0xbbe76948	-0.007062111
5	0xbcb4da6c	-0.022076808
6	0xbc8249e9	-0.015904384
7	0x3c915fb9	0.01774584
8	0x3c95ae15	0.018271485
9	0xbbb59a3c	-0.005542068
10	0x3b9c0cbc	0.0047622602
11	0xba767200	-0.00094011426
12	0x3cd223ab	0.025651773
13	0xbb81e9f0	-0.003964655
14	0xbc39d2ae	-0.011341734
15	0x3aa2b460	0.0012413375
16	0xbc9c7e0a	-0.019103069
17	0x3bd46b34	0.006482506
18	0xbc6d7cb8	-0.014495067
19	0x3c8e2717	0.017352624
20	0x3c57b2c2	0.013165178
21	0x3c322e86	0.01087535
22	0x3b6d31b8	0.0036192965
23	0x3c560ace	0.0130640995
24	0xbc0e3e70	-0.008681878
25	0xbb5db348	-0.0033828784
26	0x3b87e56c	0.0041472223
27	0xbb398340	-0.002830699
28	0x3b221b28	0.0024735425
29	0x3c4634fa	0.0120975915
30	0x3cdffca5	0.02734215
31	0x3ca618ad	0.020275438
32	0x3b2da5c8	0.0026496518
33	0xba59b040	-0.00083041564
34	0x3b3c72b8	0.00287549
35	0xbcd0acc8	-0.025473014
36	0x39e88d40	0.00044355728
37	0xbb5623a0	-0.0032675043
38	0xbcb1ebea	-0.021718938
39	0x3cbb20ed	0.022842849
40	0x3c994b75	0.018712739
41	0x3cb19941	0.021679522
42	0xbcad9d9e	-0.021193322
43	0xbc2164a6	-0.009850657
44	0xbcc02fb4	-0.023460247
45	0xb8fba600	-0.000119995326
46	0x3acb3940	0.0015504733
47	0x3b4db3d8	0.0031387713
48	0x3bb79a1c	0.005603088
49	0xba845120	-0.0010094978
50	0xbca03014	-0.019554175
51	0xbba49ad4	-0.0050233398
52	0x3ccf557d	0.025309319
53	0x3c82fd3d	0.015989894
54	0x3bf48b0c	0.0074628647
55	0xbc8f74e5	-0.017511794
56	0x3c01314e	0.00788529
57	0xbcee84e9	-0.02911611
58	0x3c74b216	0.014935037
59	0xbc49dcda	-0.0123207215
60	0x3c686f96	0.01418676
61	0x3cbf0c99	0.023321437
62	0x3cbe2483	0.02321077
63	0x3ca86fcf	0.020561127
64	0x3ca4d69f	0.02012187
65	0xbcd12914	-0.025532283
66	0xbcc53135	-0.024071315
67	0xbc873ccc	-0.016508482
68	0xbcc83018	-0.024436995
69	0x3c850f9f	0.0162428
70	0x3cc29bcd	0.023755932
71	0xbb8ab978	-0.0042335354
72	0xbc121b2a	-0.008917609
73	0xbc9d412e	-0.01919612
74	0x3b98c854	0.004662553
75	0xbc482996	-0.012216946
76	0xbca6da30	-0.020367712
77	0x3a2bd2c0	0.00065545365
78	0x3c6e5be6	0.0145482775
79	0xbc433b10	-0.011915937
80	0x3b81bd94	0.003959367
81	0xbcc79813	-0.024364507
82	0x3adc9b50	0.0016830955
83	0xbc87c1fd	-0.016571993
84	0xbc1dd4a8	-0.009633221
85	0x3cdd3745	0.027003894
86	0xbbb3bddc	-0.0054852795
87	0xbbb264ac	-0.00544413
88	0x3b9379ac	0.0045005884
89	0xbca4c65a	-0.020114113
90	0x3bcfaebc	0.0063379686
91	0xbc84f83f	-0.016231654
92	0xbc9fcdec	-0.01950737
93	0xbb5688c0	-0.0032735318
94	0xbc8effc0	-0.017455935
95	0xbca9e3ca	-0.020738501
96	0xbb0d14e8	-0.0021527354
97	0x3c3155b6	0.010823658
98	0x3c81d619	0.01584916
99	0xbce7b0a2	-0.028282467
100	0x3c5a7232	0.01333289
101	0xb9ffef80	-0.00048815832
102	0x3c432fae	0.011913223
103	0x3cca1aab	0.02467092
104	0x3c0bfeb6	0.008544615
105	0xbb2d5298	-0.0026446935
106	0xbcb4ed0c	-0.022085689
107	0x3c923fa3	0.01785261
108	0x3c9b5321	0.018960537
109	0xbc308860	-0.010774702
110	0x3cb67917	0.022274537
111	0x3c8f6439	0.017503845
112	0xbbdab91c	-0.006674899
113	0x3c05d28a	0.008167872
114	0x3bb48c24	0.00550987
115	0x3cdd254b	0.026995322
116	0x3c011436	0.007878354
117	0x3ce6628f	0.028123168
118	0x3cdd485f	0.027012048
119	0x3c86905b	0.016426256
120	0x3c981889	0.018566387
121	0x3b8a167c	0.004214106
122	0x3b2b8f58	0.0026177969
123	0x3a8a85a0	0.0010568388
124	0xbcca541a	-0.024698306
125	0xbc243c68	-0.010024168
126	0xbce7231a	-0.02821498
127	0x3cc533b5	0.024072507
128	0x3c41038e	0.011780633
129	0x3cd15709	0.025554197
130	0xbc0eac82	-0.008708121
131	0xbc966a6c	-0.018361293
132	0xba5c91c0	-0.00084140524
133	0xbbfae724	-0.0076569486
134	0xbcad1d78	-0.021132216
135	0xbb979750	-0.004626192
136	0xbb87d7fc	-0.0041456204
137	0x3bc88bdc	0.006120188
138	0xbc490de8	-0.012271382
139	0xbca2f03a	-0.01988994
140	0x3c8014f5	0.015634993
141	0xbca35c94	-0.019941606
142	0x3bee13c4	0.00726554
143	0xba2b2540	-0.0006528683
144	0xbb2d7b70	-0.002647128
145	0xbca437fd	-0.020046229
146	0xbccf967e	-0.025340315
147	0x3c880a47	0.016606463
148	0x3ce0d691	0.027446063
149	0x3c37d176	0.011219373
150	0x3ca26739	0.019824611
151	0x3ca450cf	0.020058064
152	0x3c44fcfa	0.012023205
153	0xbbeb42b4	-0.0071795825
154	0xbc3683e4	-0.011139844
155	0xbbba9ed0	-0.0056952015
156	0x3b2af568	0.0026086215
157	0xbca946a0	-0.02066356
158	0x3bb9bb3c	0.005668072
159	0x3b18ba58	0.002330443
160	0xbc131c64	-0.008978937
161	0x3c6414c6	0.013920968
162	0x3c2adbfe	0.010428427
163	0x3ceddbfd	0.029035563
164	0xbcf0a4fa	-0.029375542
165	0xbbc307f4	-0.005951876
166	0xbc0107ba	-0.007875377
167	0xbbb21a98	-0.005435299
168	0x3b6bbe48	0.003597157
169	0xbc919c18	-0.017774627
170	0xbc5f2ccc	-0.01362152
171	0x3cdca5e5	0.026934573
172	0x3c50de0e	0.012748254
173	0xbabc7260	-0.0014377348
174	0xbcdf04d9	-0.027223991
175	0x3c1e4522	0.009660037
176	0xbc75efcd	-0.015010786
177	0x3aeb54f0	0.001795439
178	0x3b959254	0.004564563
179	0x3bccc664	0.006249236
180	0xbb8d5e8c	-0.0043142494
181	0x3c869d05	0.016432295
182	0xbca8bee2	-0.020598833
183	0xbb4f5280	-0.0031634867
184	0x3cc95f8b	0.024581691
185	0xbb27ef60	-0.0025624856
186	0xbbd3a780	-0.0064591765
187	0x3caf7827	0.021419598
188	0x3bd13ad4	0.0063851867
189	0x3c79d582	0.015248658
190	0x3c390c5a	0.011294449
191	0xbcdea228	-0.027176932
192	0xbba66724	-0.0050782133
193	0xbaa861f0	-0.001284657
194	0xbc074bea	-0.008257845
195	0x3c96f381	0.018426659
196	0x3c529042	0.012851777
197	0xbc788b13	-0.015169877
198	0xbcc806c2	-0.024417285
199	0xbc69b7ae	-0.014264984
200	0x3c95466b	0.018222054
201	0x3b450ff8	0.0030069333
202	0x3ca1a99b	0.019734195
203	0x3b2a31c8	0.0025969613
204	0xbc0030ba	-0.007824117
205	0xbc4316f0	-0.011907324
206	0x3c0212b2	0.007939028
207	0xbae02fc0	-0.0017104074
208	0x3cca9fb1	0.02473435
209	0x3c3b53fa	0.011433596
210	0x3cc55e69	0.02409287
211	0x3cd920c3	0.02650488
212	0xbb730760	-0.0037083253
213	0xbb05f790	-0.0020441748
214	0xbcef4620	-0.029208243
215	0xbc2e3ed0	-0.010635093
216	0xbcc82dc6	-0.024435889
217	0xbc8d0f53	-0.017219221
218	0xbcab9fcd	-0.020950222
219	0xbcec70b4	-0.028862335
220	0xbc8c436a	-0.01712199
221	0x3bd929bc	0.0066272896
222	0xbc5f8b8a	-0.013644109
223	0xbc89a1ae	-0.016800728
224	0x3b21c538	0.0024684202
225	0xbccfb37c	-0.02535414
226	0x3b1db8a8	0.0024066363
227	0xbcd35ec6	-0.025802027
228	0xbcaf523a	-0.021401513
229	0x3c03ffe2	0.008056613
230	0x3c9577b3	0.018245554
231	0x3cbe4407	0.023225797
232	0x3c07a31a	0.008278633
233	0xbb8130bc	-0.003942577
234	0xbcbd8648	-0.02313532
235	0xbcf02b48	-0.029317513
236	0xbc8b7ab6	-0.017026287
237	0xbc8b2d2e	-0.016989317
238	0x39ce4c80	0.0003934838
239	0xbbcc1d40	-0.006229073
240	0x3b879474	0.00413757
241	0xbc9cdf63	-0.019149488
242	0x3aca2030	0.001542097
243	0x3be922ac	0.007114729
244	0xbc8f32fa	-0.017480362
245	0x3ccdae85	0.025107631
246	0x3b237578	0.0024941843
247	0xbc0c627c	-0.008568402
248	0x3bc3ecec	0.005979171
249	0x3bf19b94	0.0073732827
250	0x399c86c0	0.00029855035
251	0x3c0599d2	0.008154349
252	0x3ccf4ec5	0.025306115
253	0xbc98f676	-0.01867221
254	0xbc437110	-0.011928812
255	0xbcd3100c	-0.025764488
